models/speed_conv3d_last.pt (torch, 287672 bytes, 7 tensors)

backbone.0.weight f4 [16, 4, 3, 3, 3]
00000000: bb9c 623d c760 7b3d a37a 1dbd bc35 9b3d
00000010: 124d 02bd 405c 093c b3ba 67bd bd7d 4c3d
00000020: a20f 9c3d 113f 9ebd 2dfd 993d d7c1 4c3c
00000030: 1561 8e3d caea 403c 440b 3a3d bbda 52bc
00000040: 64b3 9a3d 8fba 803c da4e 57bd 42fe 783c
00000050: d8df 66bd cfec 68bc f024 34bd 6c91 663d
00000060: 1a32 a3bd b32a 3ebd 0be7 00bd 4450 9bbd
00000070: 75ad 25bc 26cc e7bd d244 983d 6021 bfbd
00000080: d640 7c3d eb4a ae3b 5b5b 1dbd 8488 4e3d
00000090: 99fa e83b 2e47 893d 8feb cc3a c4be 07bd
000000a0: dc00 b63c bbc6 f5bc 58ba 1f3d 6754 ae3d
000000b0: 2ed6 603d 5754 53bd 7b5a 343d 0bef 063b
000000c0: 9586 373d 3b81 85bd 2f23 d8bd 5b4b 30bd
000000d0: 146e 9fbd 8672 943d 349a 603c 07b5 c53c
000000e0: ba43 773c d1ed 22bc 2fae 8a3d 418e 9dbd
000000f0: e15e f0ba f557 8dbd 9b94 ce3c b0e5 1bbd
00000100: 14e2 ac3c 6fc0 e0bc c1f8 a43d 86b4 6cbd
00000110: 6a7c 6fbd 65e1 68bd 858a b43d f73c 0d3d
00000120: 8836 af3d d1de b4bd 2d63 ddbd 7344 9bbd
00000130: 2bfa 87bd 224d 033d 290b 013d 5a8a a53d
00000140: cda1 57bd b21d 25be c4f9 22bd d76c 03be
00000150: 6a93 11bd be56 e1bd 903f f7bc dabf 29be
00000160: d956 0cbe d6cd 6abd 041b 9ebd c2aa 00be
00000170: 328e 35bd 9238 dfbc 0804 28be 39a2 18be
00000180: 5c3e 9eba b1dc 00be 1632 05be 9203 34be
00000190: 4539 edbd 2240 25bd e3ce abbd 48e9 f6bd
000001a0: f126 5ebd 784a ffbd 681f 04be eccb e6bd
000001b0: 0f3a a3bd 7974 6bbd c488 c73d b8c0 cc3b
000001c0: b32f 8c3c 7311 c3bd c931 9ebd f62a 3bbd
000001d0: 3dfb 923c e1c8 97bd 5d63 65bc 0cae 00bd
000001e0: 3178 a0b9 ab5a fbbc 3c77 913b 927a 63bd
000001f0: c158 76bd 6237 2ebd 54bd 86bc a55d f5bc
00000200: 86d8 163e 3dea 473b 536b fd3d cf65 ab3d
00000210: 09b9 0dbd 63fb f33d ab00 ca3c 6cff e4bc
00000220: 5896 96bd fccf bbbd 8f49 ac3c 7579 f9bc
00000230: bc50 113d f2a7 b0bd fd7a 813d 9bd2 7fbd
00000240: 4213 ceba 2829 473d 91aa 9a3d c70e a83d
00000250: 6e81 c23d e43a 82bd a53a 213d ad26 01bd
00000260: 90e8 e03b c673 51bd 71c5 073e d628 05bc
00000270: fb14 a13d 4e53 9a3d 553c ad3d 86fc 98ba
00000280: 6224 113e 9f6c 993d cf7d 193c aa41 c1bd
00000290: e540 de3c 1082 09bd e297 90bd 911c 843d
000002a0: dfa8 903b 3200 98bd 2d2c 54bd a15a e5ba
000002b0: c77a 833d c9cc 9cbc ea1a 83bd 3fe8 38bd
000002c0: f033 9fbd 6d25 1e3d cf6f 8e3d 78f0 b0bd
000002d0: 1148 f73c 6e24 953d 0a9d 5e3d 3c27 a8bc
000002e0: ae29 8f3d 8f5b a83d eaee 983d 97e0 a03c
000002f0: 5db3 493c b2da 753e 7a56 673e 85b7 5b3e
00000300: 5e94 943e e29d a33e 6442 643e 698b 583e
00000310: 3685 6d3e 2f68 5d3e d4df 8f3e adaf 983e
00000320: 5a3f 3e3e fc30 623e 1b53 ae3e 8ec4 963e
00000330: a9db 7e3e 18db 4e3e 694e 433e fb99 233e
00000340: 0d11 5c3e fa77 913e 129c 9d3e bdd3 953e
00000350: 67ba 2c3e 7711 4d3e 9ebc 763e 421f b03e
00000360: c411 753d 4c07 d03b 7910 803d 8dac 2c3b
00000370: 2e02 2abd 07b2 b43d 0f66 b5ba bd6a 343b
00000380: 4f8b 8cbd c506 e53d 0f93 e23d d169 8b3d
00000390: 7aa9 efbc 1c7e 8ebd ef1b 50bd 3ec9 dc3d
000003a0: c6fa 8d3d dc4a e83d 6de5 ae3d 4479 543d
000003b0: cdde ae3c 8924 34bd f58d 82bd fe33 8ebd
000003c0: 83d1 8f3d 8053 e0bc e199 273c c060 18bc
000003d0: f339 883c e255 25bd e542 b3bc 47dd 673d
000003e0: 5693 bbbb 8458 d63d 75d4 8bbb b240 1ebd
000003f0: 8f41 003d d995 c9bb 9950 f53b d0b8 53bd
0.05532525 0.06137159 -0.038447034 0.075786084 -0.03181178 0.0083838105 -0.056574535 0.0499246
0.07620169 -0.07726873 0.075189926 0.012497387 0.06952111 0.011774728 0.0454209 -0.012869532
0.07553747 0.015713958 -0.052565433 0.015197339 -0.056365818 -0.014216616 -0.04398054 0.05629103
-0.079685405 -0.04642744 -0.03147034 -0.07583669 -0.010112156 -0.11318235 0.074350014 -0.09332538
0.06158527 0.0053189895 -0.0384172 0.05042316 0.0071099517 0.067030296 0.0015634167 -0.033140913
0.022217207 -0.030001989 0.03899607 0.08512192 0.054891758 -0.051594105 0.0440316 0.0020589258
0.04480608 -0.065187894 -0.10553586 -0.043040615 -0.077846676 0.07248406 0.01370864 0.024134172
0.015091831 -0.009944395 0.06771504 -0.076931484 -0.0018338823 -0.06901542 0.025217345 -0.038060844
0.021103896 -0.02743551 0.080552585 -0.057789348 -0.05846826 -0.056855578 0.08815483 0.03448197
0.08555323 -0.08831561 -0.10809932 -0.07581415 -0.06639513 0.03205598 0.031504784 0.08083029
-0.05264454 -0.16124609 -0.039788976 -0.12834488 -0.035540976 -0.11002873 -0.030181676 -0.16577092
-0.13705005 -0.057325207 -0.077199966 -0.12565139 -0.04432506 -0.027248655 -0.16407788 -0.14905633
-0.0012073028 -0.12584187 -0.13007388 -0.17579487 -0.11583189 -0.040344365 -0.0838907 -0.120562136
-0.054236356 -0.12465376 -0.12902606 -0.11269364 -0.07970058 -0.057484124 0.09742883 0.00624856
0.017112589 -0.095248125 -0.077243395 -0.045695268 0.017942065 -0.074113615 -0.014000741 -0.031415984
-0.00030607128 -0.030682882 0.0044392627 -0.055536814 -0.060143236 -0.042533286 -0.0164477 -0.02995188
0.14731035 0.0030504607 0.12373986 0.08369028 -0.03460029 0.119131826 0.024658522 -0.027953826
-0.073528945 -0.09170529 0.02103117 -0.030453423 0.035477385 -0.08625783 0.06322286 -0.06245671
-0.0015722292 0.048623234 0.07552064 0.082059436 0.09497343 -0.06358889 0.03936257 -0.031531025
0.006863661 -0.0511358 0.13258912 -0.008127412 0.0786533 0.0753542 0.08458773 -0.0011671938
0.14174035 0.07491421 0.009368374 -0.094363526 0.027130553 -0.033571303 -0.07060219 0.06450761
0.0044146623 -0.07421912 -0.05179994 -0.0017498323 0.06419902 -0.019140618 -0.06401618 -0.045143362
-0.07773578 0.03860991 0.069549195 -0.08639616 0.030185731 0.07282339 0.054348983 -0.02052652
0.06990372 0.082205884 0.07467444 0.019638343 0.01231083 0.24009207 0.22591582 0.21456726
0.29019445 0.31956393 0.22290951 0.21146931 0.23195347 0.21621774 0.28100455 0.2982153
0.18578854 0.22088999 0.3404778 0.29446834 0.24888481 0.20200765 0.1907288 0.15976708
0.2149088 0.28411847 0.30783135 0.29263106 0.16867982 0.20026194 0.24095389 0.34398848
0.059831396 0.006348526 0.06253142 0.0026347965 -0.041505985 0.088230185 -0.001383962 0.0027529441
-0.068625085 0.11182932 0.110632055 0.06807292 -0.029255617 -0.06957647 -0.05080789 0.107805714
0.06932597 0.11342403 0.08539853 0.05187346 0.021346474 -0.043980155 -0.063747324 -0.069435105
0.07022383 -0.027383566 0.010229559 -0.009300411 0.016629195 -0.040365107 -0.021882484 0.05660751
-0.005724351 0.10466102 -0.00426727 -0.038635917 0.03131252 -0.0061518964 0.0074864146 -0.051689923

backbone.0.bias f4 [16]
00000000: d326 41bd 2f23 09bd 4dd7 02bd c2a5 9d3d
00000010: 8ea6 0bbd 465b 4b3b 1a0a 8b3c 2ae5 513d
00000020: fbdb 553d 4b7c 99bd 41ba 86bd a752 bc3c
00000030: 6017 bb3d 47d4 d23c 5e50 afbd e268 403d
-0.047156166 -0.03348082 -0.031943608 0.076976314 -0.034094386 0.0031029745 0.01697259 0.05124394
0.052211743 -0.0749441 -0.06578494 0.02298863 0.09135318 0.025735987 -0.08560251 0.046975024

backbone.3.weight f4 [32, 16, 3, 3, 3]
00000000: e03e 023c 1569 e93a 4e6a 22bc 0745 ab3c
00000010: 8c39 d5bc f469 63bc 8a82 9d3c e81f af3c
00000020: 2b62 32bd 443e 863c 1812 31bc 7fc9 f0bc
00000030: eea2 813c 3fd7 53bd e037 e23b 5368 b53c
00000040: bfbd 70bd 65fc 50bd 618d 96bd 8019 11bd
00000050: 444d 87bd 6678 2ebd 9c5a 47bc dea5 1d3c
00000060: 8b2d 733a 6c73 2b3a b6c4 54bb 140d 58bd
00000070: 1a3f 7dbd caa5 d8bc 444e bb3c d1d6 adbc
00000080: d1f0 fbbc 092a 65bd 44b7 47bd 05ef 83bd
00000090: c8bb 683c 5cdf 04bd f518 8fbd 2db1 94bc
000000a0: 6a86 a8bc 80a3 02bd 76f8 f7bb aec0 c0b9
000000b0: 36ca 96bd 1bf0 7ebd 4c97 ecbc 1bef 97bd
000000c0: 3d24 8abd df8d 913c bdcf f5bc 7ff1 40bd
000000d0: 71ad 27bd 8e2b 83bd 4eee 993c ce64 ecbc
000000e0: 1923 38bd 4d58 5cbd 07c7 4d3c 0f84 c6bc
000000f0: 230f b2bc e029 edbc c390 22bd 6bd2 ffbb
00000100: e59d 993c fba8 41bd e245 56bc 64f3 53bd
00000110: 28aa 25bd ecba dd3c 28c3 7cbc 36a1 f13c
00000120: e97e c1bc 8557 30bd 7f0c 40bd 9066 de3c
00000130: 4504 57bd ebfc e03b b563 89bb 59e5 34bb
00000140: 8aeb 1f3c be11 1dbd d98e 543a e188 93bd
00000150: b373 1fbd 5b3a 3c3c e778 5fbc 87c4 e4bc
00000160: 5feb 08bd f477 6dbd 6fcb da3b 2dda e3bc
00000170: f755 05bd 892b ecbb 4bb5 753c 6c6b 4cbd
00000180: 001c 11bd 73cf 583c d6d9 0c3a 9883 38bd
00000190: a5e6 94bd ca57 acbc 7067 063c a587 06bc
000001a0: 75e6 1e3c 4850 65bd da81 b53b 9d08 65bd
000001b0: 8dcd 13bc 8a58 95ba cec2 a0bc 9fe3 a93b
000001c0: aa34 84bd 4afa 9dbd 744c a3bd c4e1 acba
000001d0: 441f 7fbc 223b 82bd 9ebc 20bc 418d 4b3c
000001e0: bc54 98bd df2f d43b c749 bfbc 321b bdbc
000001f0: 244d 743c 1562 643c 8f37 2ebc 9dd3 b43b
00000200: c6f5 0dbc 97d2 bebc c5c3 91bd abf1 a8bc
00000210: 0ac9 87bd 2986 85bc 459c b7bc c779 d4bc
00000220: ddfc 72bd ca29 62bd fd61 523c 3ac7 f0b9
00000230: 6e83 f3ba dcfb 1abd e853 0cbd 9b0c 28bd
00000240: bdb2 b93b e4fe 3fbd 7696 ac3b a7e0 383c
00000250: 2a49 8abd 0337 d2bc 676e 06bd b77b 56bd
00000260: e7e4 04bc d82e 03bd ea7c 913c eaa3 5bbd
00000270: 3691 d539 0c50 84bd 25d7 4fbd 2f96 acbc
00000280: e607 3f3c e8cc 72bb 87f0 94bd e063 ecbc
00000290: 5c4d 7abd 2dcf eabc 9541 94bd 166a 39bd
000002a0: 8f4b 3d39 ce1d a1bd 0013 98bd ca1d 02bd
000002b0: 229b 0abd a506 36bd d2c4 8d3b 3528 88bd
000002c0: c42d 80bd 7cc4 97bd 8747 43bd a160 30bd
000002d0: 7bec 75bc 0732 3fbd 57b3 d1bc 2b31 81bd
000002e0: c589 55bb cd6f f93a 5485 adbd 1b06 57bd
000002f0: 685a 95bd 7d4b 3ebc ddbc 98bd 2c6d 64bd
00000300: 51f4 9f3c 738d 9bbd 894e 553b 8c03 cfbc
00000310: a144 093c a630 66bd 8a49 7d3b d471 c2bc
00000320: 88bc dcbc 47fd 103c 7edc 95bd 2dcc 8dbd
00000330: b18c ad3c 3a6d 68bd 1eab 84bd 732e ebbc
00000340: 33d5 34bd 6559 12bd bbc4 61bd 1440 14bc
00000350: d950 91bd c4fe adbc a44e 173a adb2 a6bc
00000360: 8c8f a0bb fbb9 7b3b f097 61bc d669 8bbc
00000370: 6fa7 ddbc 2747 12bd 50f6 0abd 365f 273d
00000380: 324b 71bc a412 2e3c 8bf9 093d a8f7 a039
00000390: d002 fbbc aa84 14bd ad7d 8bbc e27b 273c
000003a0: 49cc 3dbd a693 2ebc f04a 393c 4933 1d3d
000003b0: 846e 983c b9e6 8d3b 744b e53c 05b9 b63c
000003c0: c148 e83b f4bd d5bc 5cc8 40bd 7352 4cbd
000003d0: 8e89 53bd 01ff 2abd 1129 25bd 04c5 7abc
000003e0: cda0 e4bb e44b 5fbd f6b9 a2bd e9fe 73bd
000003f0: c6e5 6fbd 3584 39bc 9eb7 92bd 0090 0ebd
0.007949561 0.0017807806 -0.00991304 0.020906938 -0.026028417 -0.013880242 0.019227285 0.021377519
-0.04355065 0.016387112 -0.010807537 -0.029392956 0.015824761 -0.051718947 0.0069036335 0.022144472
-0.058774706 -0.051021952 -0.07351185 -0.03542471 -0.06606534 -0.04259529 -0.012167599 0.009622065
0.0009276501 0.00065403315 -0.0032465882 -0.052746847 -0.061827756 -0.026446242 0.022864468 -0.021220597
-0.030754479 -0.05594829 -0.04875876 -0.06442074 0.014204927 -0.032439575 -0.06987182 -0.01815089
-0.020571906 -0.031894207 -0.0075674606 -0.0003676465 -0.073627874 -0.0622407 -0.028880738 -0.074186526
-0.06745193 0.017767845 -0.030006284 -0.04710531 -0.04093689 -0.06404792 0.01879039 -0.028856661
-0.044955347 -0.053795148 0.012559659 -0.024232892 -0.021735733 -0.028950632 -0.039688837 -0.007807066
0.018752048 -0.047280293 -0.013078185 -0.051745787 -0.040445477 0.02706667 -0.015427388 0.029495817
-0.023620086 -0.043052215 -0.046886917 0.027148515 -0.052494306 0.0068660877 -0.004192794 -0.0027602522
0.009760747 -0.038347 0.0008108444 -0.07203842 -0.0389287 0.011488522 -0.013639665 -0.027925743
-0.033427592 -0.057975724 0.006677083 -0.027813995 -0.032552686 -0.007207338 0.014996837 -0.049907133
-0.035427094 0.0132330535 0.0005373036 -0.045047373 -0.072705545 -0.021037955 0.008203372 -0.008211051
0.0096985 -0.055984765 0.005539161 -0.055916417 -0.009021175 -0.0011394185 -0.01962414 0.0051846053
-0.064553574 -0.077137545 -0.07973567 -0.0013189842 -0.015571419 -0.06358935 -0.009810595 0.012423814
-0.07438037 0.0064754332 -0.02335061 -0.023084257 0.01491097 0.0139394 -0.010633363 0.0055183903
-0.008664554 -0.023293776 -0.07117418 -0.020623049 -0.06630142 -0.016299324 -0.022413382 -0.025936974
-0.05932318 -0.055215634 0.012840745 -0.00045924803 -0.0018578598 -0.037837848 -0.034259707 -0.041027647
0.005667059 -0.046873942 0.00526696 0.01128403 -0.06752236 -0.025660997 -0.03282013 -0.052364077
-0.008111215 -0.032027096 0.017759759 -0.053623118 0.00040734716 -0.0646058 -0.050742287 -0.021067707
0.011659598 -0.0037048403 -0.072724395 -0.028856218 -0.061108932 -0.028663242 -0.07239071 -0.045267187
0.00018052592 -0.07867013 -0.07425499 -0.03176669 -0.033839352 -0.04443993 0.0043264413 -0.06648294
-0.06258729 -0.07410523 -0.047675636 -0.043060903 -0.015009995 -0.04667857 -0.025598211 -0.06308206
-0.0032583338 0.0019030512 -0.08472696 -0.052496057 -0.07292634 -0.0116146775 -0.07457898 -0.055768177
0.019525679 -0.07595339 0.0032548031 -0.025270246 0.008378179 -0.05619874 0.003864857 -0.023735918
-0.026945367 0.0088494485 -0.07317446 -0.06923709 0.021185251 -0.05674479 -0.064779505 -0.028708672
-0.044148635 -0.035729785 -0.055119257 -0.009048481 -0.070954986 -0.021239646 0.0005771911 -0.020348871
-0.0048999246 0.0038410414 -0.013769135 -0.01701824 -0.027057378 -0.035712387 -0.03392631 0.040862285
-0.014727401 0.010624561 0.03368525 0.00030702096 -0.03064099 -0.03625933 -0.0170277 0.010222407
-0.0463374 -0.010655319 0.01130937 0.038378987 0.018607385 0.004330483 0.02799008 0.022305021
0.007088751 -0.026091553 -0.047066078 -0.049883317 -0.051644854 -0.041747097 -0.040322367 -0.015305761
-0.0069771768 -0.054515734 -0.079456255 -0.059569273 -0.05856874 -0.0113230245 -0.071639284 -0.034805298

backbone.3.bias f4 [32]
00000000: 94e2 c0bb 4a38 62bb a04d 46bd 6736 45bd
00000010: 879e a7bc 906e 60bd ec39 d7bb eb70 97bd
00000020: 8cc0 77bd 1d8f 1c3b 2516 413c 8105 45bd
00000030: 1849 a8bc b6e5 ccbc ad06 64bd e773 2dbd
00000040: cc30 e1bb 3823 b8bc 256b 073d c948 70bd
00000050: a9c4 66bd c27e 76bd 5036 53bd 8d78 a2bc
00000060: 6754 0e3b 5ff9 81bd ce76 813c b566 2dbd
00000070: c6ae eebb 2d49 adbb c33b a9bc b230 e33b
-0.005886385 -0.0034518414 -0.048413873 -0.048147585 -0.020461334 -0.05479294 -0.006568184 -0.07394584
-0.06048636 0.0023889013 0.011785065 -0.048100952 -0.020542666 -0.025011878 -0.05567043 -0.04234686
-0.006872272 -0.022477731 0.033061165 -0.058663163 -0.056339893 -0.06017948 -0.05156547 -0.019832874
0.0021717788 -0.06346392 0.01580372 -0.042334277 -0.007284018 -0.0052882642 -0.02065838 0.006933295

backbone.6.weight f4 [64, 32, 3, 3, 3]
00000000: d166 eb3a cd63 a73c 5854 52bc 9571 12bd
00000010: d715 6dbc 34d8 8ebb 4ab2 71b9 c515 48bc
00000020: 0295 2cbc 8a52 afbb 01c6 a5bc b191 b3bb
00000030: 883d 1abd 9881 c0bc 5bd5 013b 97a3 8ebb
00000040: d5cc b83b 1390 13bd cea2 9bbc 6e0e e6bc
00000050: b66f 18bd e0dc ddbc da5a 83bc bc68 82bc
00000060: 0b0d 6bbc e6f3 06bd 793e 53bc 2d6f 9f3d
00000070: c864 bc3d 4c7b bc3d 664d f13c f23b 0b3d
00000080: e42d ab3d 970e b83d bcb2 a83d 7be6 363d
00000090: 43ce f63d db2b 663d 99c4 823d c963 ab3d
000000a0: 1f53 bd3d 114d 313d db58 c53d 94e6 ad3d
000000b0: 74a4 9f3d c54b 5b3d 030f 813d 7fd8 a93d
000000c0: a60d 9f3d 3454 b53d b2d9 5e3d 922f e53d
000000d0: 3311 b33d d792 433d e76d 86bc 8f2e 263d
000000e0: 24f4 a43c 98a3 683c 4919 d63b a0e9 093d
000000f0: 9254 b13b 0bd4 e6bb 49db 293d 6ec2 6d3b
00000100: 2d68 1b3d e724 adbb 54ff 3a3c 44b2 a0b9
00000110: 53e7 a03c 2da7 693c 8f25 ea3c 559c 03bc
00000120: 8c28 4abc 2c35 383d 6c19 0bbc 4b91 ef3c
00000130: 3d07 3fbc 6aef c53c 46a3 8b3c f42e 9f3a
00000140: 2aac 8b3c 232b a53c 273a 893c 21fe 283d
00000150: 3996 68bb 7b0a ff3c ba87 3f3d 5e9c 04bc
00000160: e9d9 2bbc 0688 e03c 0ec2 8c3b 9202 7d3c
00000170: df48 83bc 3291 183d 83ce 643c 460c 923c
00000180: b3fc a63b 3a73 e93c b28c 803c 4a29 303b
00000190: e718 c73c e087 2d3b d7bc ec3c 3513 89bc
000001a0: 858c 0e3b 922d d7bb 4b94 fc3c 41b0 02bc
000001b0: 3718 bf3b 16d8 51bc 7af5 553a 8c72 31bd
000001c0: b81c 49bd 80ce d2bc f526 23bd dbea 06bd
000001d0: 7c1f 033c b14c 28bb 5b4c 00bd ff7d 153a
000001e0: 5fc1 34bd 6f38 2abd d608 b0bb cd73 d0bb
000001f0: 620a 01bd 76e0 32bd aaf4 53bc ad1a 643c
00000200: 4b3f 833c ee84 163c 2ea8 37bd 977b 9e3b
00000210: 0024 4ebc b53f 40bd 9389 7abc 1e1d 52bd
00000220: 9cc8 44bc 2a9e 21bd b601 2abd e832 90bc
00000230: ce7b 243b d3d8 023b 03a0 1ebd b204 133a
00000240: 5234 acbb 473a 2bbd 98e5 f0bc da25 d7bc
00000250: 540d 3fbd 2b86 52bd 0685 23bd 55d8 5c3c
00000260: bbd4 e2bc 4307 57bc 5828 3bbd 2112 cbbc
00000270: ed6f 63bb 3c0b 93bc 06d2 aebc 5e23 7fbc
00000280: 9a83 e63b 4d98 28bd cd92 13bd 73e3 1dbd
00000290: d97d fc3b 7175 c7bc c7b8 a8bc a971 27bc
000002a0: bf64 723c a9a3 9ebb 9d7d d43a bef0 82bc
000002b0: 36bb 413c 8a9c c4bc 9812 a53c 9248 b23c
000002c0: 1e10 17bd bd34 89bc 8ddf 22bc 76be c4bc
000002d0: 4f19 90bb 79f4 8fbc 07c0 b13c f1ce 0fbc
000002e0: ef72 cebc bb3f bcbc c0c2 1abd d745 dabc
000002f0: effd 8f3a dba8 073d fd0f 053c b29c bc3c
00000300: 5fca 233d 5736 e03c befd d93c 07df 1d3a
00000310: 6bbe 603d 9907 513c b639 d33c e277 993c
00000320: ed0b 1a3d 7b19 a8bb 6fde fb3c f547 64bb
00000330: 1056 4c3d 3e2f 1d3c e2bf f43c ded9 ce3c
00000340: 1369 1a3c 7d09 963c 680d 633d 0c0c bf3b
00000350: 4e25 673c 0f4b 3a3d f21f 303d 8793 043d
00000360: 8620 48bd 7ef1 cebc 5278 5dbd bf2b 11bd
00000370: 4709 bdbc d975 07bd 30c2 80bb b5f2 95bc
00000380: 7d40 4cbc bde1 14bc 487f 3dbc 1849 5dbd
00000390: d2ce 3cbc 1d87 0e3c a663 0dbc e080 d33b
000003a0: afbf 17bd 189f e5bc 3e81 46bd 0f22 4abd
000003b0: da21 37bd 002f 063a a70b 1bbd 801c eabb
000003c0: 7bce ef3b f3d2 a0bb 40d8 02bd d7de 4c38
000003d0: 7a91 1abc 4d62 52bc 472c f6bc 2ad3 a83b
000003e0: 8228 84bb 746f dabc 09f2 a9bb 258f 2cbd
000003f0: 7f12 cbbc 5033 4fbd 8b4f 52bd c5e9 c53b
0.0017959719 0.02043333 -0.012837492 -0.03575285 -0.014470539 -0.0043592695 -0.00023049969 -0.0122122215
-0.010533573 -0.0053504156 -0.020236017 -0.0054800143 -0.037656337 -0.023499295 0.0019811008 -0.0043529975
0.0056396523 -0.03602607 -0.01899853 -0.028083052 -0.03721591 -0.02708286 -0.016034532 -0.015919082
-0.014346371 -0.032947443 -0.012893313 0.07784877 0.0919891 0.092032045 0.029455852 0.033992715
0.08358362 0.08987158 0.08237216 0.044653397 0.1205106 0.056194168 0.06385154 0.08368642
0.0924437 0.043286387 0.096360885 0.08491245 0.07795039 0.053539056 0.063016914 0.082932465
0.07766275 0.08853951 0.05440683 0.11190714 0.08743515 0.04774746 -0.016409827 0.040571745
0.020135947 0.01419916 0.006533776 0.033670068 0.005411693 -0.0070443205 0.041468892 0.003627922
0.037941147 -0.00528394 0.011413414 -0.00030650396 0.019641554 0.014261049 0.028582362 -0.008032878
-0.012338769 0.044972584 -0.008489948 0.029244086 -0.011659441 0.024162013 0.017045628 0.001214473
0.017049868 0.02016217 0.016751362 0.04125798 -0.003548993 0.031132927 0.0467603 -0.0080939215
-0.010488966 0.027408611 0.004295594 0.015442507 -0.016025959 0.037247844 0.013965252 0.017828118
0.005096042 0.028497327 0.015692089 0.002688008 0.024303867 0.0026478693 0.02889864 -0.016732791
0.0021751237 -0.0065667117 0.03083243 -0.0079765925 0.005831744 -0.012807867 0.0008161884 -0.04332213
-0.049099654 -0.025733232 -0.039832074 -0.03293882 0.008003112 -0.0025680477 -0.03132282 0.0005702674
-0.044129726 -0.041557726 -0.005372147 -0.006361461 -0.031504042 -0.043671094 -0.01293675 0.013922376
0.016021391 0.009186966 -0.044838123 0.0048365104 -0.012581825 -0.046935756 -0.015291589 -0.0512973
-0.01201072 -0.039457478 -0.041505538 -0.017602399 0.0025098207 0.0019965663 -0.038726818 0.00056083046
-0.0052552605 -0.041803624 -0.029406354 -0.026263166 -0.04664357 -0.051397484 -0.039921783 0.013479312
-0.027689328 -0.01312429 -0.04569277 -0.024788918 -0.0034704164 -0.017949693 -0.021340381 -0.015572397
0.007034731 -0.04116087 -0.036028672 -0.03854699 0.007705432 -0.024347993 -0.020595921 -0.01021997
0.014794528 -0.004841287 0.0016211752 -0.015983935 0.01182442 -0.024000425 0.020150468 0.02176312
-0.036880605 -0.01674878 -0.009940994 -0.0240166 -0.0043975483 -0.017572628 0.021698011 -0.008777366
-0.025201289 -0.022979608 -0.037783384 -0.02664463 0.0010985712 0.033120017 0.008121488 0.023023937
0.039987918 0.027369661 0.026610252 0.00060223084 0.054869097 0.012758159 0.025784355 0.018733922
0.03760903 -0.0051299906 0.030745713 -0.0034832929 0.049886763 0.009593783 0.029876653 0.025250372
0.009424466 0.018315071 0.055432707 0.0058302935 0.014108015 0.045481738 0.042999215 0.032367256
-0.04885914 -0.025261637 -0.054069825 -0.03544211 -0.023075713 -0.033071373 -0.003929399 -0.018304208
-0.012466547 -0.009087023 -0.011565991 -0.054024786 -0.011523919 0.008699206 -0.008629715 0.006454572
-0.037048038 -0.028029963 -0.0484631 -0.049348887 -0.044710018 0.0005118698 -0.03785291 -0.0071445107
0.0073183156 -0.0049079596 -0.031944513 4.8844926e-05 -0.009434098 -0.01284082 -0.03005041 0.005152126
-0.004033149 -0.026664473 -0.0051863235 -0.0421287 -0.024789093 -0.050586045 -0.05134539 0.0060398304

backbone.6.bias f4 [64]
00000000: 1909 0d3b f7e0 5ebd f324 11bb 2631 a23d
00000010: 505d 09bd 9504 4dbd e50c 9cbc 9a4e 273c
00000020: 2339 0bbd 224e 43bd e7a9 173a 612a 6b3c
00000030: dacb cbbc 07ae 80bc b989 ab3d fdd2 af3d
00000040: e819 31bc 6bd8 9ebc 7392 0fbd c9e0 2cbb
00000050: d55f a1bc 70f6 60bd fc30 fe3c 1b4f 70bc
00000060: 774f 003c c439 a9bc f81c cbbc 1b98 49bb
00000070: 7271 84bc 719f 01bd 9c8c 423c 1aa4 453b
00000080: 978d 5ebd eaa3 b53c cba6 9e3d c6a1 1e3c
00000090: fb92 dbbc 4459 bc3d fc5b a4ba 089d 25bc
000000a0: 04e7 67bc cdb6 68bc 0b7c 3f3c 658a e8bb
000000b0: 77b8 58bd 92ef 14bd 64cc a33d 1016 b23d
000000c0: fec4 853d f850 25bd 0296 16bd 9661 553d
000000d0: 7408 0a3d 797e 633d 5096 30bd ce72 b43d
000000e0: d142 cebb 189a 143d f715 b33d 307d e43b
000000f0: 920c 0abd 8e35 3abd a2e6 bd3a 8d15 d9bb
0.0021520315 -0.054413762 -0.0022147268 0.079195306 -0.033536255 -0.050053198 -0.019049117 0.010211611
-0.033990037 -0.047681935 0.00057855103 0.014353366 -0.024877477 -0.015707983 0.08375878 0.08585165
-0.010809399 -0.019390306 -0.035051774 -0.00263791 -0.019699017 -0.05492252 0.031029217 -0.014667298
0.007831446 -0.020657428 -0.024794087 -0.0030760828 -0.016167376 -0.031646196 0.011874344 0.0030157627
-0.05433425 0.022172887 0.07746657 0.0096821245 -0.026803484 0.091967136 -0.001253962 -0.01010824
-0.0141541995 -0.014203739 0.011687289 -0.007096576 -0.052910294 -0.036361285 0.07997969 0.08695614
0.06531714 -0.04036042 -0.036764152 0.05209502 0.033699468 0.055540536 -0.0431121 0.0881096
-0.006294586 0.036279768 0.08744424 0.0069729313 -0.033703394 -0.04546123 0.001448829 -0.0066248835

fc.weight f4 [1, 64]
00000000: 002e c33d 633e 92bd b09a 913d 0259 13be
00000010: 1e56 c0bd 1bc8 723c 165d 5a3d c587 b63d
00000020: 94b0 07bd ed6e d73d 3483 f93d 738c b33d
00000030: 1e60 c03d a2b3 fc3c c190 1bbe 7fb4 95bd
00000040: ba06 a53b 02bd 893d f7dd d0bc dcdd 083b
00000050: 175c 0ebc 819a b5bd a013 5abd e1c1 073e
00000060: 48f9 8e3d 668a 8ebc 1a99 713d 52d9 073e
00000070: 79ba f63d 3906 9d3c ddbc bc3d c5dd fb3d
00000080: 04e6 5d3d 633c be3d f9a8 a8bd 53f8 a33d
00000090: 6323 413d 2bf4 1ebe 494d 873d 0d9c a63d
000000a0: 9b29 113e eb7f 81bd e6c5 053e 55d6 c1bc
000000b0: 36c8 48bd 3165 09bc a9f8 2bbe 9695 2fbe
000000c0: 89ae f2bd 850e 5c3d a00d afbd 4a01 b4bd
000000d0: 9823 a4bc 38d6 81bd c49d 893a 5ed4 30be
000000e0: e437 1e3e 8495 313b dedb 33be 185a f23d
000000f0: 7930 c4bd 974f 99bd 6a32 d83d cf15 953d
0.09530258 -0.071408056 0.071095824 -0.14389423 -0.093914255 0.014818217 0.05331143 0.08912615
-0.033127382 0.10519204 0.12183228 0.08767023 0.09393333 0.030847374 -0.15191938 -0.073098175
0.0050362023 0.067255035 -0.025496466 0.0020884192 -0.008688948 -0.0886736 -0.053241372 0.13257553
0.069811404 -0.017399978 0.0589839 0.13266495 0.120472856 0.019168006 0.0921571 0.122981586
0.054174438 0.092888616 -0.08235354 0.080063485 0.047152888 -0.1552283 0.06606538 0.08135233
0.14176027 -0.063232265 0.13063774 -0.023661772 -0.04901906 -0.008385942 -0.16794075 -0.17146906
-0.11849696 0.053724784 -0.08547521 -0.08789308 -0.020036504 -0.06339687 0.0010499288 -0.17268512
0.15451008 0.0027097175 -0.17564341 0.1183359 -0.09579558 -0.07485884 0.10556491 0.0727955
