models/speed_conv3d_best.pt (torch, 287672 bytes, 7 tensors)

backbone.0.weight f4 [16, 4, 3, 3, 3]
000000 43 ba d9 3d fc b9 e1 3d a2 d1 32 3c 95 c1 f4 3d
       0.1063123 0.11021802 0.010914238 0.11950985
000010 3c 0a 05 3c f3 e3 49 3d ca 54 73 bc d4 01 ad 3d
       0.008120116 0.049289655 -0.014851758 0.08447614
000020 ef 6a e7 3d 85 07 1d bd d7 27 e9 3d ba d9 53 3d
       0.11299693 -0.03833725 0.11384552 0.051721312
000030 12 ba d0 3d 9c d1 2f 3d 37 3d 9d 3d d1 77 9c 3c
       0.1019174 0.04292451 0.076776914 0.019100102
000040 5a f2 d3 3d c5 0b 30 3d 03 3e 8b bc f2 dd 42 3d
       0.10348959 0.042979974 -0.016997343 0.047574945
000050 84 ca 91 bc 6d 73 66 3c 77 ae 8f bc 74 52 b3 3d
       -0.017796762 0.014065606 -0.017539246 0.08755961
000060 dc 4f 49 bd 39 4d b9 bc 0a b9 72 bb d9 6a 05 bd
       -0.049148425 -0.02261983 -0.0037036561 -0.0325726
000070 91 ac 04 3d a5 6e 8d bd 8a f8 e2 3d 29 8b 73 bd
       0.032391135 -0.069058694 0.11082561 -0.059458885
000080 e3 03 c7 3d b5 fe 26 3d df 23 24 bc ba ec a5 3d
       0.09717538 0.04077025 -0.010018318 0.08101793
000090 cb 1b 24 3d fe 5e cf 3d 44 a7 17 3d dd 34 d4 bb
       0.040065568 0.1012554 0.03702475 -0.0064760284
0000a0 26 ab 48 3d b5 1b 21 bb 90 5e 87 3d 23 95 de 3d
       0.048991345 -0.0024583165 0.06609833 0.10868289
0000b0 83 a3 9f 3d 36 85 a9 bc 72 af 94 3d 62 f7 18 3d
       0.07794859 -0.020693403 0.07260026 0.037345298
0000c0 f3 50 8b 3d ca a9 2f bd d5 43 9e bd 6a 4f 87 bc
       0.06802549 -0.042886533 -0.07727782 -0.01651736
0000d0 06 a2 6b bd 90 9e c6 3d 17 8a 3c 3d 74 15 68 3d
       -0.057527564 0.09698212 0.04603013 0.056661084
0000e0 3d ae 49 3d 19 7b 7f 3c ea d4 ba 3d ac c8 54 bd
       0.049238432 0.015593314 0.091226414 -0.051949188
0000f0 15 d5 c4 3c 01 11 4f bd 05 fd 38 3d ae d0 74 bc
       0.024027387 -0.050553326 0.045163173 -0.014942331
000100 e7 dd 3e 3d 97 6e 2b ba df c7 c6 3d 25 09 25 bd
       0.04659834 -0.00065396115 0.09706091 -0.040291924
000110 03 d0 24 bd e1 3b 1e bd ef 40 d3 3d dc de 45 3d
       -0.040237438 -0.038631324 0.103151195 0.04830824
000120 66 93 dc 3d 63 51 8c bd d1 e1 a6 bd 39 c7 7d bd
       0.107703015 -0.06851461 -0.0814854 -0.06195757
000130 38 dc 5f bd 5a a0 52 3d 98 40 49 3d a6 90 ba 3d
       -0.054653376 0.051422454 0.049133867 0.09109621
000140 d1 59 17 bd b8 b4 72 3b b3 05 f9 3d 9f ea 02 3d
       -0.03695089 0.0037033986 0.1215929 0.031962033
000150 7d 59 03 3e e8 c5 42 3d fd e5 ff 3d 0b 09 b4 bb
       0.12827106 0.04755202 0.12495039 -0.005494242
000160 c4 bd aa 3c 06 28 c9 3d 80 70 b7 3d 4c 11 41 3d
       0.02084244 0.09822087 0.089570045 0.047135636
000170 f7 ca 02 3e 2a f7 0a 3e e2 7d 06 3b 97 5a a0 3c
       0.12772737 0.13570848 0.002052181 0.019574447
000180 2d cd 20 3e 2a 45 1c 3d ad d4 15 3d ec 82 cf bc
       0.15703268 0.038151897 0.036579777 -0.025330983
000190 ca 5b 6f 3c 5c bf c0 3d 83 3c 62 3d 74 b4 46 39
       0.014609287 0.09411499 0.05523349 0.00018949975
0001a0 ce 17 94 3d 4c e2 bd 3a 0f c4 53 bc e8 59 81 3c
       0.07231103 0.0014486997 -0.012925162 0.015789941
0001b0 d8 aa de bd 53 d7 b0 bd 43 08 90 3d ec 34 cc bb
       -0.108724296 -0.0863482 0.07032826 -0.0062318947
0001c0 d4 e5 88 3b ef d3 ec bd 0f 7c b0 bd e4 9b 63 bd
       0.0041777883 -0.115638606 -0.08617412 -0.05556859
0001d0 3c 16 18 bc 9e d4 e1 bd 58 ea 8a bd 37 2a a9 bd
       -0.009282645 -0.11026882 -0.06782979 -0.08260005
0001e0 d2 cf ce bc 01 eb 7d bd 09 22 ff bc 19 63 b5 bd
       -0.02524558 -0.061991695 -0.031144159 -0.08856792
0001f0 a8 83 b6 bd 10 d6 a1 bd 6c 06 85 bd 9e 26 e1 bd
       -0.0891183 -0.07902157 -0.064953655 -0.10993694
000200 00 e8 40 3d e7 83 51 bd 1b 91 44 3d b6 5d 67 bb
       0.047096252 -0.051151183 0.047989946 -0.0035303659
000210 4e 48 e3 bd a1 f8 10 3d 6b e0 6a bd ab fa 67 bd
       -0.110977754 0.03539336 -0.057342928 -0.05663554
000220 d9 b8 cc bd 91 98 ed bd 25 c1 01 3c 28 9a 29 bd
       -0.099961944 -0.11601365 0.007919584 -0.04140678
000230 76 65 8a 3c 45 70 c7 bd 29 41 59 3d fa 97 b7 bd
       0.016894083 -0.097382106 0.053040657 -0.08964534
000240 95 4a 1b bd 5c 96 06 bb 57 c2 f4 3c c0 3b 67 3d
       -0.037912924 -0.0020536399 0.029877825 0.056453466
000250 00 15 87 3d e2 50 c3 bd c7 58 a5 3b 16 76 73 bd
       0.06595802 -0.095369115 0.0050459835 -0.059438787
000260 7f 6e e5 bc e8 43 cc bd 4a 42 6b 3d 30 34 cc bd
       -0.02800679 -0.099738896 0.057436265 -0.099708915
000270 03 3b c2 3c b1 73 33 3b 2b 8f 18 3b 7f 03 9e bd
       0.02370978 0.002738219 0.0023278694 -0.077155106
000280 5f 7b 78 3d b0 fd 96 bb a4 63 2d bb 04 2c cc bd
       0.06066453 -0.0046078786 -0.0026457096 -0.09969333
000290 c2 07 d8 3c ea 07 ee bc d5 69 6f bd ca b2 8b 3d
       0.026370887 -0.029056508 -0.05845054 0.06821211
0002a0 3a 99 01 3c 28 fd 84 bd 65 01 7b bd 12 24 b3 bc
       0.007910067 -0.06493598 -0.061280627 -0.021867786
0002b0 34 90 12 3d 4b c9 1b bd c6 28 93 bd 7f 27 49 bd
       0.035782054 -0.038033765 -0.07185511 -0.049109932
0002c0 67 23 ac bd ff 33 a1 3c 10 3f 82 3d ea b5 ce bd
       -0.0840519 0.019678114 0.063596845 -0.10093291
0002d0 bc 2f 2c bb 4d 85 b1 3c 8d b2 05 bc 81 fd 71 bd
       -0.002627357 0.021670008 -0.008160246 -0.05907965
0002e0 c6 c6 b2 3c e0 7e cf 3c ed 62 69 3c ca e6 20 bd
       0.021823298 0.025329053 0.014244777 -0.039282598
0002f0 df 90 3d bd 3b 2a 81 bd 2f 50 b4 bd 22 3e c5 bd
       -0.046280738 -0.06306883 -0.08804356 -0.096309915
000300 0c f3 2d bc 54 e2 5b 3c 26 e4 9a bd 32 f0 bf bd
       -0.010617029 0.01342066 -0.07563047 -0.093719855
000310 dc 09 8a bd 23 e1 8f bd cf 94 36 bd 67 8c 17 bd
       -0.06740162 -0.07025363 -0.04457551 -0.036999132
000320 42 c6 16 be 9e a2 cd bd 6e 69 9c 3c aa ab b3 bc
       -0.14724067 -0.100407824 0.019093242 -0.021932442
000330 33 d2 8b bd 86 fa f2 bd 7e b6 eb bd f6 6e 1d be
       -0.06827202 -0.1186419 -0.11509417 -0.1537436
000340 3f 24 c5 bd 5d 76 f4 bc 93 3f 50 bb fe 67 8f bc
       -0.09626054 -0.029841596 -0.0031776174 -0.017505642
000350 9d 1c 14 be 26 50 fa bd 57 2f 9d bd 64 4e 14 3d
       -0.1446404 -0.12222318 -0.07675045 0.03620757
000360 a4 9a 6a bc cd b1 57 bd 4a 05 2f 3c ad 6f 82 bd
       -0.014319096 -0.0526598 0.010682413 -0.06368957
000370 ff 6d b8 bd 2f cb 2d 3d 13 c5 8f bd 23 1c 3e bd
       -0.09005355 0.0424301 -0.07020011 -0.046413552
000380 1d d3 f8 bd 44 1e 15 3d 34 d1 38 3d 2c 16 d0 3b
       -0.12149642 0.036405817 0.045121387 0.0063502993
000390 15 37 bf bd a4 08 fa bd d8 e6 d7 bd ff 7d 3b 3d
       -0.09336678 -0.12208679 -0.10542077 0.045774456
0003a0 0b 79 a0 3c 54 d7 61 3d 9b 46 93 3c d4 0f e5 bb
       0.019588968 0.055136994 0.017978003 -0.0069904123
0003b0 2f 7c 03 bd 1c 67 d1 bd ad 3d e4 bd 38 8f f2 bd
       -0.032100853 -0.10224745 -0.11144576 -0.11843723
0003c0 f4 52 44 3c ee d9 97 bd 22 0f 38 bd 4a 9d 9c bd
       0.011982668 -0.07414614 -0.044936307 -0.07647188
0003d0 89 8d 1d bd 83 98 ba bd 50 86 ac bd 13 47 1a 3c
       -0.038465057 -0.091111206 -0.084240556 0.0094163595
0003e0 13 64 53 bd 24 d5 21 3d f3 ec 56 bd 5b 74 b9 bd
       -0.05160911 0.039509907 -0.052472066 -0.09055396
0003f0 66 8b 14 bd 03 b6 87 bd c1 d3 51 bd 15 ff e2 bd
       -0.036265753 -0.06626513 -0.051227335 -0.11083809

backbone.0.bias f4 [16]
000000 57 57 00 3d f5 e5 0c bd f7 b5 05 bd f5 32 ce 3d
       0.031333294 -0.03439899 -0.03264424 0.10068313
000010 39 d1 65 3d 37 6a 21 bc 8d 5b da 3c 7c 58 10 3d
       0.056107733 -0.009851984 0.026654983 0.035240635
000020 d7 00 1d 3d 01 68 7c bc 9b 15 1c bd 2f 97 95 3d
       0.03833088 -0.015405656 -0.038106542 0.073042266
000030 ab 43 dc 3c ae a3 64 3d 4e 9c b6 bc 32 85 65 3d
       0.026887735 0.05582016 -0.022291329 0.056035228

backbone.3.weight f4 [32, 16, 3, 3, 3]
000000 44 c7 7b 3d 58 33 58 3d 9b 45 15 3d 56 02 95 3d
       0.06146933 0.05278334 0.036443334 0.07275836
000010 62 08 b6 3c 68 9a 05 3d 7c 0b 90 3d 1b cc 8a 3d
       0.022220794 0.032617956 0.070334405 0.06777211
000020 b6 d3 03 3b b0 08 8f 3d 69 08 2b 3d 28 62 a0 3c
       0.0020115203 0.06984079 0.041756067 0.019578055
000030 57 00 8b 3d eb 5b c6 ba 46 95 64 3d a4 a9 95 3d
       0.06787174 -0.0015133595 0.05580642 0.07307747
000040 b9 a4 35 bc 27 ce 89 bb 88 a4 bb bc cf 3a 5b 3c
       -0.011086636 -0.0042054835 -0.022905603 0.01338072
000050 79 32 a9 bc ec 20 04 3c 10 0a 15 3d de 58 6b 3d
       -0.02065395 0.00806449 0.03638655 0.057457797
000060 4e 48 50 3d b4 70 45 3d 14 f9 33 3d 42 cd 46 bd
       0.050850205 0.048203185 0.04393871 -0.048535593
000070 a0 68 3c bd 08 e6 ee ba 4a 3b f6 3c 5b b8 3b ba
       -0.045998216 -0.0018226514 0.030057568 -0.0007160955
000080 64 61 8f bc b3 72 3b bd 9d 13 a6 bc 7e 86 31 bd
       -0.017502494 -0.045763683 -0.020273024 -0.043341152
000090 5b e0 97 3c e6 34 99 bc df a5 5d bd 40 29 72 bc
       0.018539598 -0.018701982 -0.054113265 -0.014780343
0000a0 4a a3 a3 bb 15 6d e9 bc b0 57 ce ba 3e 18 be 3c
       -0.004993831 -0.028494397 -0.0015742686 0.023204919
0000b0 c7 f1 7c bd b0 04 5a bd 84 be f3 bb 92 16 53 bd
       -0.061754014 -0.053227127 -0.0074384827 -0.051535197
0000c0 7c 30 70 bd 3e f7 1e 3d 9a f4 c0 bc 6e 24 1b bd
       -0.05863999 0.038810007 -0.023554135 -0.03787654
0000d0 66 b6 86 bc 2e cb 5a bd 20 84 d4 3c ee a7 8e bc
       -0.016444396 -0.053416423 0.025941908 -0.01741406
0000e0 63 7a 18 bd ac bb 4c bd 9a d3 8f 3c cb 14 d2 bc
       -0.037226092 -0.049983665 0.017556954 -0.02564468
0000f0 d0 fa 35 bc 84 93 5c bc 57 ed 2a bd e5 aa 9b ba
       -0.011107162 -0.013462905 -0.04173025 -0.0011876492
000100 e5 9a 0b 3d 19 09 0f bd 83 f6 0a bc 80 70 35 bd
       0.034083266 -0.034920786 -0.008481625 -0.04429674
000110 ec 4e 27 bd b2 21 24 3d 20 31 fb 3a 62 8f e5 3c
       -0.04084675 0.040071197 0.0019164421 0.028022472
000120 89 65 88 bc 25 5b ec bc 8d 73 08 bd 77 c0 06 3d
       -0.016649978 -0.028852055 -0.033313323 0.032898393
000130 e1 d7 2e bd a9 05 24 3c 33 c3 38 3c d6 62 8d 3c
       -0.042686347 0.010011115 0.011277008 0.017259043
000140 7b 87 40 3c 5f e2 05 bd 85 89 86 3c 6b d3 5a bd
       0.011751051 -0.032686587 0.016422996 -0.05342428
000150 99 5e 18 bd f3 14 b6 3c 6e b2 13 bc 7e 31 bf bc
       -0.03719959 0.022226786 -0.009014709 -0.02333903
000160 29 47 a6 bc 38 ab 4f bd 33 17 1c 3c 16 dc 6d bc
       -0.020297604 -0.050700396 0.0095270155 -0.014517805
000170 cf ea 84 bc aa 24 0c bc 27 5a bb 3c d8 d8 45 bd
       -0.016225247 -0.008553663 0.022870136 -0.0483025
000180 f4 a5 06 bd fd 0c c5 3c 30 8b b2 3b 94 73 25 bd
       -0.03287311 0.024054045 0.0054487213 -0.040393427
000190 55 83 69 bd 37 65 c5 ba e2 71 03 3c df 1d 06 3b
       -0.057010014 -0.0015060072 0.008022757 0.0020464582
0001a0 76 4f 66 3c ed 80 52 bd 75 37 97 3c 1e d8 46 bd
       0.014057031 -0.051392484 0.018459061 -0.04854595
0001b0 a6 5b 55 3d 31 30 68 3d 7c f9 05 3d 7e 66 82 3d
       0.052089356 0.056686584 0.03270863 0.06367205
0001c0 11 48 47 bc 86 89 d9 bc 5a 5d c2 bc 1e 04 3f 3d
       -0.012163178 -0.026554834 -0.023726154 0.046634786
0001d0 6c 3b fe 3c 59 8b 3e bc 86 cc 31 3d 05 3f 82 3d
       0.031034194 -0.011629903 0.04340794 0.06359676
0001e0 f0 a1 b7 bc 96 c2 65 3d f0 98 e9 3c c5 36 ea 3c
       -0.022416085 0.056093775 0.02851531 0.02859057
0001f0 bb 06 7f 3d 78 51 82 3d 50 ab 2c 3d 80 25 61 3d
       0.062262278 0.06363195 0.042155564 0.054967403
000200 e4 8d 0a 3d ce d5 f0 3c 18 73 d9 bc bb be c4 3c
       0.033826724 0.029398825 -0.026544139 0.024016729
000210 d2 5e 6a bc 7f fe ed 3c 0c 59 ce 3c 48 ff 4e bb
       -0.0143048335 0.029052017 0.025188945 -0.0031585265
000220 c2 e2 ca bc db 99 11 bd 63 ee be 3c 4a 5c a2 3c
       -0.02476633 -0.03554712 0.023307031 0.019819397
000230 74 0c 1b 3c 5c 82 c5 bc 45 15 48 bb 1a 8a e4 bc
       0.009463418 -0.024110012 -0.0030530256 -0.027897883
000240 fb 85 fc 3c af 23 3e bc 3c b6 c8 3c 5b 73 a8 3c
       0.030825606 -0.011605187 0.024500959 0.020562818
000250 b2 10 4a bd 50 e6 9b bc 84 39 ad bc e5 fd d1 bc
       -0.04933233 -0.01903072 -0.02114559 -0.025633762
000260 a0 73 0a bb a4 ae e8 bb ec 70 5c 3d 5d 37 03 bd
       -0.0021126047 -0.007100897 0.05381863 -0.03203522
000270 a5 54 46 3c 20 87 30 bd eb 4a 27 bd d0 e9 ad bb
       0.012105142 -0.043097615 -0.04084293 -0.0053074136
000280 af 7c 2d 3d 11 15 96 3b 60 9f 5b bc 5f 8b e4 3c
       0.042355236 0.004580148 -0.013404697 0.027898489
000290 c5 31 94 bb 8c 3a e7 3c 5e 20 92 bc 74 cc 25 3c
       -0.0045225346 0.02822616 -0.0178377 0.010119546
0002a0 68 eb 6e 3d 4d 43 b8 bc 85 cd af bc a2 79 0d 3d
       0.05832997 -0.022493029 -0.021460304 0.034539826
0002b0 0b 92 e6 3c ef f5 66 3c 26 90 89 3d b1 e4 09 bc
       0.02814581 0.014096721 0.06716947 -0.008416341
0002c0 1d 59 ce bb 7b f5 44 bc 69 d5 38 3c 1a 0f 38 3c
       -0.006297244 -0.012021418 0.01128135 0.011234069
0002d0 96 a7 5f 3d c4 91 98 3c 49 c5 1d 3d 51 6c 98 3b
       0.05460318 0.018624194 0.038518224 0.004651584
0002e0 80 b0 75 3d f8 3e 82 3d b5 9d 9f bc 31 e4 02 3c
       0.059982777 0.063596666 -0.01948438 0.007988975
0002f0 78 6a 91 bc 86 e9 7d 3b f7 ba 4d bd 3b c5 25 bd
       -0.017750964 0.0038743927 -0.05022713 -0.040471297
000300 7c 56 00 3d a5 ee 71 bd 17 55 53 3c 5a 08 12 bc
       0.031332478 -0.05906548 0.012898705 -0.008913124
000310 15 a8 fb 3c fc 77 41 bd 5e b7 7e 3c c3 6b d7 ba
       0.030719796 -0.047233567 0.015546648 -0.0016435314
000320 6e 2a 5d bc 09 78 90 3c 6b a8 6d bd 84 42 7c bd
       -0.013498886 0.017635362 -0.058021944 -0.06158687
000330 b5 d9 12 3d 35 a4 18 bd bf ff 6d bd e8 d7 82 bc
       0.035852153 -0.037265975 -0.058105227 -0.015972093
000340 48 b0 b4 bc 39 3b b0 bc 02 0f 3b bd 24 16 c2 3b
       -0.022056714 -0.021512615 -0.04566861 0.0059230495
000350 41 66 7d bd 5e 3d ae bb 54 1a a6 3c 17 83 4b bc
       -0.061865095 -0.005317374 0.020276226 -0.012421391
000360 95 64 1d 3d d0 d4 10 3d d0 bd 7a 3c 8f f5 b8 3c
       0.038426 0.035359204 0.015304044 0.022578029
000370 c6 50 fd 3b 4b 96 52 bb f3 6f 92 3b 70 38 95 3d
       0.007730576 -0.0032133039 0.004468912 0.07286155
000380 26 55 9a 3c 92 44 44 3d ca 61 77 3d 18 7e c7 3c
       0.01883943 0.047916956 0.060395993 0.024352118
000390 22 9d a5 3b 04 c1 ba bb 27 14 31 3c 61 b7 3e 3d
       0.005054132 -0.005699279 0.010808027 0.046561603
0003a0 4d 7c 81 bc 3a 32 a9 3c a9 80 46 3d 0f 99 84 3d
       -0.015806342 0.020653833 0.048462544 0.06474506
0003b0 c0 93 27 3d c6 74 21 3d 03 c2 6d 3d 84 0e 48 3d
       0.04091239 0.039418004 0.058046352 0.04884197
0003c0 d4 0c 36 3d 4f 43 03 3c f7 7a 61 bc 29 81 b8 bc
       0.044445828 0.008011653 -0.013762227 -0.022522526
0003d0 17 9c 20 bc 1a 9e 7a bb 61 72 b8 bc ee 7a 54 3c
       -0.00980284 -0.0038241209 -0.022515478 0.012968762
0003e0 4c cd 55 3c 59 93 cd bc 79 ff 27 bd fa df 22 bd
       0.013049435 -0.025094675 -0.041015122 -0.039764382
0003f0 41 24 0a bd 28 b1 dc 3c b2 95 1a bd 67 04 a4 bc
       -0.03372598 0.026939943 -0.037740417 -0.02002163

backbone.3.bias f4 [32]
000000 a1 ba 26 3d 1d eb f1 bc 05 6b 65 bc 26 dc 05 bc
       0.040705327 -0.029531056 -0.014002566 -0.008170163
000010 bf 21 66 3c f8 39 c6 bc 2d 99 b1 3c 3e e8 02 bd
       0.014046132 -0.024197564 0.021679485 -0.031959765
000020 ed da 8f bc a2 cf 1d 3d 7a 0a 38 3d 76 d0 19 bc
       -0.017560447 0.038528092 0.044931866 -0.00938808
000030 c8 5c 52 3c 40 72 1a 3c 68 d1 92 bc c5 2b 04 bb
       0.012839504 0.009426653 -0.017922118 -0.002016769
000040 4e 09 19 3d 67 16 33 3c b1 ba 5c 3d e0 34 d4 bc
       0.03736239 0.010930634 0.05388898 -0.025904119
000050 c8 a8 00 bd 6c a2 1b bd a0 d1 a3 bc f0 f7 a9 3c
       -0.031410962 -0.037996694 -0.019997418 0.020748109
000060 55 52 34 3d 1f 90 cd bc 53 f5 1d bd 1c 54 ac bb
       0.04402383 -0.025093136 -0.038564038 -0.00525905
000070 b9 e2 1b 3d 50 6a 18 3d 4a dc fe 3b 49 e7 56 3d
       0.038058016 0.037210763 0.0077777253 0.052466664

backbone.6.weight f4 [64, 32, 3, 3, 3]
000000 cf ee 20 3d 44 51 6c 3d 89 e4 d4 3c 3f fd b8 3b
       0.039290246 0.05769469 0.02598788 0.0056454237
000010 b7 18 d1 3c 57 08 14 3d 7f ae 22 3d 75 31 c9 3c
       0.02552448 0.036140766 0.039717194 0.024559716
000020 f0 97 d4 3c 83 1e 09 3d ae 64 94 3c c5 97 0b 3d
       0.025951356 0.033476364 0.018114414 0.034080286
000030 a1 34 aa 3b 50 98 90 3c fe f3 32 3d 3c 57 17 3d
       0.005194262 0.017650753 0.04368972 0.036948428
000040 c8 60 33 3d 60 7f 0e 3b 4a 82 8a 3c fa a9 02 3c
       0.04379347 0.0021743402 0.01690783 0.007975096
000050 02 54 56 ba d8 c6 52 3c 8c 8e bc 3c 86 ff ba 3c
       -0.000817597 0.012864791 0.02301719 0.022826921
000060 8b 4d c8 3c 84 f5 59 3b 36 a3 b8 3c bd 19 54 3c
       0.024451038 0.003325791 0.022538763 0.01294559
000070 f5 6f ee 3c 55 2d d7 3c 95 d7 c9 bc 1c 0f 88 bc
       0.02910612 0.026266733 -0.02463893 -0.016608767
000080 29 78 05 3d 3e 71 df 3c 38 30 c3 3c 16 2f 40 bc
       0.032585297 0.027275678 0.023826703 -0.011729976
000090 1a f9 e5 3c ea 1d 04 bd 34 82 ce bc 18 99 36 3b
       0.028072882 -0.03225509 -0.02520857 0.0027862247
0000a0 45 65 8c 3c 12 4a f8 bc af 9a b8 3b 71 d7 6f 3a
       0.017138133 -0.030308757 0.005633674 0.000914923
0000b0 c4 ac 21 bb 74 f1 ef bc de c8 92 bc 15 8e f4 3a
       -0.0024669627 -0.029289939 -0.017918047 0.0018658066
0000c0 22 02 bc 3b 2b b2 a7 3c d8 be 43 bc 88 b6 fe 3c
       0.005737559 0.0204707 -0.011947356 0.031092897
0000d0 19 f3 4e 3c be 07 ba bc 27 0c 5f bd 9b bd a0 3b
       0.012631201 -0.02270877 -0.05445495 0.0049054152
0000e0 89 24 80 bc 91 34 a9 bc 26 82 d7 bc b2 de a4 ba
       -0.015642421 -0.020654948 -0.026307177 -0.0012578575
0000f0 12 1a db bc e2 0b 1b bd b5 7d d8 3b fa 40 13 bd
       -0.02674583 -0.03785313 0.0066067823 -0.03595064
000100 55 f3 04 3a af 8d 2e bd 5f 81 d1 bc bf 40 0f bd
       0.00050716597 -0.04261559 -0.025574384 -0.034973856
000110 18 7f 8c bc 6b 4b a4 bc df a1 7d bb e6 58 38 bd
       -0.017150447 -0.020055493 -0.003870122 -0.045006655
000120 cd 24 52 bd 35 24 04 3c 54 04 39 bd 62 33 ec bb
       -0.051304627 0.008065273 -0.045170143 -0.0072082737
000130 6d 4e 3d bd a1 aa 47 bc b1 27 8b bc 22 4a 00 bd
       -0.04621737 -0.012186677 -0.0169867 -0.0313207
000140 e2 20 a0 bc 79 78 07 3d dc 30 e7 3c 40 dd 58 3d
       -0.01954693 0.033073876 0.02822154 0.052945375
000150 c1 b4 18 3c 90 35 2d 3d 12 13 6e 3d 45 2f 8f 3b
       0.009320439 0.04228741 0.058123656 0.0043696486
000160 c2 3a 53 39 45 8b 1b 3d ed 2b 89 3c bb 0a d7 3c
       0.00020144417 0.037974615 0.016744578 0.026250234
000170 9a 63 9e bb 5a d1 4a 3d 71 b2 c8 3c 48 07 eb 3c
       -0.004833651 0.04951606 0.02449915 0.028689995
000180 c5 a8 8a 3c 05 1f 1e 3d b4 a2 d3 3c 5e e6 79 3c
       0.016926179 0.0386038 0.025834419 0.015252678
000190 07 9b 11 3d cf e6 6a 3c 7e a9 29 3d df f1 ba bb
       0.035548236 0.014337256 0.041421406 -0.005705103
0001a0 0b b9 5d 3c bc 2d b5 3b a7 8b 29 3d b5 5f 2f 3b
       0.013532887 0.0055291336 0.04139295 0.0026759927
0001b0 83 9d 64 3d 5e 39 15 3d 9c 4c 49 3d b4 6d e0 3b
       0.055814277 0.036431663 0.049145326 0.006849015
0001c0 67 6d 5a b9 8a 43 b4 3c c4 5f 22 3c 3b 3f 7a 3c
       -0.00020830856 0.022004861 0.009910528 0.015273864
0001d0 cf 8b 61 3d 70 a1 43 3d b5 8f 93 3c b0 ae 47 3d
       0.055064972 0.04776138 0.01801286 0.04875058
0001e0 3f 2a d1 3b 2d 08 f9 3b e5 27 2e 3d b8 d9 32 3d
       0.00638321 0.0075998516 0.042518515 0.043664664
0001f0 e9 c7 8c 3c 9d 26 80 3b 04 60 0e 3d 54 e4 78 3d
       0.017185168 0.003910853 0.034759536 0.060764626
000200 25 c6 7b 3d 4d 64 69 3d 7d 32 eb 3a ba e5 4b 3d
       0.061468262 0.05698042 0.0017944124 0.04977963
000210 9a 08 10 3d 88 d7 2f ba e4 4e ef 3c 01 f9 2f bd
       0.035164453 -0.0006707837 0.029212423 -0.042962078
000220 37 95 1b bb 45 a0 e5 bc 8d c0 01 bd 6f 00 bc bb
       -0.0023740062 -0.028030524 -0.03167777 -0.0057373564
000230 c2 66 77 3c 07 bf 31 3c 15 9a e0 bc 96 bf 4c 3c
       0.015100183 0.010848767 -0.027417222 0.0124968495
000240 49 6b 33 3b dc d3 03 bd 3b b0 93 bc 02 ac 89 bc
       0.002737718 -0.032184467 -0.01802837 -0.016805653
000250 0e c3 0e bd 4f b6 1e bd 49 2d ff bc d3 87 cb 3c
       -0.034853987 -0.03874808 -0.031149523 0.02484504
000260 8a 7b 81 bc 9b 50 c0 bb 67 bb 17 bd 45 ba 6c bc
       -0.015805978 -0.005868984 -0.037043955 -0.014448707
000270 ad 41 9e 3b 79 28 f5 bb 23 13 24 bc 95 11 01 bc
       0.0048296065 -0.0074816314 -0.010014328 -0.007877727
000280 11 36 8d 3c 5e 20 f9 bc 8f 3a 72 bb 8e 7e f4 bb
       0.017237695 -0.030410942 -0.0036961173 -0.0074613756
000290 6f d7 22 3d 73 6b f7 3b 1e f7 22 3c 4f 9b a9 3c
       0.039756235 0.0075506507 0.009946613 0.02070394
0002a0 b0 2f 3f 3d 79 a6 cb 3c a8 52 01 3d 77 22 94 3c
       0.046676338 0.024859654 0.031572968 0.01808284
0002b0 09 33 35 3d 35 81 12 3c 12 45 5c 3d 01 4e 5a 3d
       0.044238124 0.008941938 0.053776808 0.053297047
0002c0 41 55 ad bb 62 2a 8c 3c 2d f2 ac 3c b0 d5 e2 3b
       -0.005289704 0.017110053 0.021111572 0.006922446
0002d0 91 2c f7 3c 51 d8 78 3c 50 73 5f 3d 28 80 d1 3c
       0.030172618 0.015188293 0.05455333 0.025573805
0002e0 76 d9 e4 3b 88 4b 13 3c 1a 48 6c bb b8 d8 a0 3b
       0.006983931 0.008990176 -0.0036053718 0.0049086474
0002f0 06 a5 04 3d 29 81 05 bb d9 f9 d5 bc 0d a6 3b bc
       0.03238394 -0.0020371175 -0.026120113 -0.011453164
000300 0f 38 f1 3b a3 a6 82 bb 96 7a c5 bb ea ab f8 bc
       0.007361419 -0.00398715 -0.0060265763 -0.030355413
000310 35 67 cd 3c 71 28 9d bc 8a a6 1f bc 50 fd 81 bc
       0.025073627 -0.019184323 -0.009744296 -0.01586786
000320 64 92 29 3b d8 62 1c bd 02 d4 89 ba eb cf 16 bd
       0.002587461 -0.038180202 -0.0010515454 -0.03681938
000330 03 03 98 3c 1d 16 a9 bc f1 c9 37 bb bb 79 23 bc
       0.018556124 -0.020640427 -0.002804395 -0.009977753
000340 6a 6e cc bc a5 c7 86 bc b1 2c b8 3c 0c f6 d4 bc
       -0.024954993 -0.01645262 0.022482248 -0.02599623
000350 e7 ae 9d bc 35 b0 67 3c dc d1 4f 3c d2 21 cb b9
       -0.019248439 0.014141132 0.012684312 -0.00038744375
000360 2d d1 33 bd 46 34 9a bc 84 b9 41 bd c4 a7 ee bc
       -0.043900657 -0.018823754 -0.047296062 -0.029132731
000370 0a d7 75 bc c0 b8 cf bc 2e 9e 82 3b 65 97 0f bc
       -0.015004883 -0.02535665 0.0039861416 -0.008764123
000380 64 69 a2 bb 7d 9b 86 bb 4d dc a9 bb d6 ed 41 bd
       -0.004956411 -0.004107891 -0.0051837326 -0.04734596
000390 01 32 b7 bb c0 98 86 3c 4d 56 b7 ba 1a 7f 69 3c
       -0.0055906777 0.016430259 -0.0013987512 0.014251495
0003a0 fe 1e e3 bc 09 58 aa bc ed 34 36 bd 2c 7f 34 bd
       -0.02772474 -0.020793932 -0.044484068 -0.044066593
0003b0 aa 50 20 bd 49 f0 ad 3b c8 d2 00 bd 37 fe a2 ba
       -0.039139427 0.0053081852 -0.031451017 -0.0012435381
0003c0 ee f1 5f 3c 67 86 43 3b 07 eb d6 bc a9 08 57 3d
       0.01366852 0.0029834749 -0.026235117 0.052498493
0003d0 d8 1f 2b 3d 18 0c 19 3d ec 78 b3 3c 5c 39 63 3d
       0.041778415 0.03736505 0.021908246 0.055474624
0003e0 08 5a 39 3d 02 1f c6 3c 5a 65 33 3d c7 0e b8 3b
       0.045251876 0.024184708 0.04379783 0.005616996
0003f0 39 30 e2 3c 80 fb fa 39 da 21 a6 ba 22 a1 6c 3d
       0.027610885 0.00047871098 -0.0012674883 0.057770856

backbone.6.bias f4 [64]
000000 4f 14 ba 3c ed 5b c5 bc 56 80 bc 3c 1d e5 aa 3c
       0.022714762 -0.024091685 0.023010414 0.020861203
000010 68 ae a2 bb 47 c0 c6 bc cd 46 b1 bc b7 37 bc 3c
       -0.0049646385 -0.024261607 -0.021640206 0.022975786
000020 66 8d a5 ba 05 06 1f bd 37 7d a2 3c 4d f2 0c 3d
       -0.0012630641 -0.0388241 0.019835098 0.034410764
000030 8f 87 94 bc ad f4 67 3c 2e ab be 3c 33 89 28 3c
       -0.018131046 0.014157456 0.023274984 0.010286617
000040 c4 3b af 3b 33 5f 60 bc e8 87 b6 bc f6 b4 e8 3c
       0.005347701 -0.013694572 -0.022281602 0.028406601
000050 42 57 0a 3c 67 3e c4 bc e7 90 bb 3c 17 d7 6d 3c
       0.008443655 -0.023955537 0.022896243 0.014516613
000060 9e 0c f1 3c 32 5b 9d b9 5e 67 36 bb 55 8f 95 3c
       0.029424962 -0.0003001332 -0.0027832608 0.018256823
000070 35 ff 96 3b 3f 61 01 bb 32 64 88 bb ce 15 ec 3c
       0.00460806 -0.00197418 -0.004162335 0.028818991
000080 33 63 b8 bc 63 6b bd bb 60 f3 6a 3b 07 db e3 ba
       -0.02250824 -0.0057806238 0.003585063 -0.0017384001
000090 1a 47 0e 3c 57 75 27 3d a0 a0 1b bc 83 f7 ca bc
       0.008683944 0.04088339 -0.009498745 -0.024776226
0000a0 ae ae 01 3c 8e d8 82 3c 89 0e 0f 3d 15 56 b0 bc
       0.007915182 0.015972402 0.03492597 -0.021525422
0000b0 7e d4 ba bc a7 f3 ba bc 39 0e ca 3c b7 fd e9 3c
       -0.022806402 -0.02282126 0.024664985 0.028563363
0000c0 ed 8a d1 3c a0 07 a7 bc 5a 69 c4 bb 2a dd 15 3d
       0.02557894 -0.020389378 -0.005994004 0.03658787
0000d0 b9 62 c2 3c bc 89 13 3d 1f dc 5b bc 34 36 ea 3c
       0.023728715 0.036020026 -0.01341918 0.0285903
0000e0 84 22 71 3c cd 4b e3 3c cf 83 0e 3d c4 73 c0 bc
       0.014717702 0.027746106 0.03479367 -0.023492701
0000f0 0c fe 8f bb 20 91 81 bc 0c 80 4b bc cb f6 d7 3c
       -0.0043942984 -0.015816271 -0.0124206655 0.026362797

fc.weight f4 [1, 64]
000000 d2 69 c8 3d 26 8c ca bd c6 22 c3 3d e5 0a c9 bd
       0.097858086 -0.098900124 0.09528117 -0.09816531
000010 f7 b5 0c be ff 37 39 bd b4 ca bb 3d 58 7b 45 3d
       -0.13741289 -0.045219418 0.09169522 0.048213333
000020 0b 2b b7 bd cd 6b f7 3d eb c1 05 3e f7 a1 c9 3d
       -0.08943757 0.12081108 0.13062255 0.098453455
000030 05 4f e4 3d d4 ca 41 bd a9 1d f6 bd 5f 1b df bc
       0.11147884 -0.047312573 -0.12017376 -0.027234731
000040 cc e4 2e bc eb cb d7 3d 19 ea 22 3d 6e d2 6a 3c
       -0.010674667 0.10536941 0.039774034 0.014332397
000050 6e 42 8c bd c1 36 15 be 98 e2 d0 bd 14 9b 15 3e
       -0.06848608 -0.14571668 -0.10199469 0.14609939
000060 1d e4 b5 3d 77 c6 2d 3d b0 9a f3 3d 8c 4a ed 3d
       0.088814 0.0424256 0.11894739 0.11586484
000070 17 19 f9 3d da 79 34 bd ea de fe 3c 1d a0 07 3e
       0.12162989 -0.04406152 0.031112153 0.13244672
000080 f7 3b e8 3d 8a f3 ac 3d 59 5e 78 bd 3e 4e ae 3d
       0.113395624 0.08444889 -0.060636852 0.08511017
000090 ac e4 92 3d d6 eb 01 be 38 ff 88 3d a2 01 bc 3d
       0.07172522 -0.1268762 0.06689304 0.09179999
0000a0 27 d3 20 3e 9b 1f f3 bd 53 63 f4 3d 51 c4 66 bd
       0.15705548 -0.11871263 0.11933007 -0.056339566
0000b0 78 26 d7 bd cf 47 2b 3d 2b be 1a be 09 2d d6 bd
       -0.10505384 0.04181653 -0.15111606 -0.104578085
0000c0 a3 3a 05 be 97 dc df 3d 27 b0 07 be f0 da 09 be
       -0.1301065 0.10930746 -0.1325079 -0.13462424
0000d0 61 58 8d bd 78 ae fe bd bf 2d 64 bd 20 57 e8 bd
       -0.069016226 -0.12435621 -0.05570769 -0.11344743
0000e0 5e 75 1f 3e 18 2b 4e bd 61 f2 0a be 8c 08 10 3e
       0.15572116 -0.050334066 -0.13569023 0.1406576
0000f0 4d ed 17 be 1f ff 05 be 74 99 ee 3d dc 69 e3 3d
       -0.14836617 -0.13085602 0.116503626 0.111041754
