models/speed_conv3d_best.pt (torch, 6392 bytes, 6 tensors)

backbone.0.weight f4 [20, 4, 3, 3, 1]
000000 2b 0c 04 3e b6 e6 1b 3e c7 67 d8 bc 6d 52 1b 3e
       0.12895267 0.15224728 -0.026416672 0.15168162
000010 e1 c8 dd bc e3 83 19 3d 8a 8f 9d bd e0 c8 e5 3d
       -0.027073326 0.037479293 -0.076933935 0.112199545
000020 e2 c2 24 3e 30 0d 00 be d5 33 0e 3e 17 a4 00 3d
       0.16089967 -0.1250503 0.1388696 0.03140649
000030 de 6f f3 3d d2 d9 90 3c 2a f4 9a 3d 53 be c5 bc
       0.11886571 0.01768199 0.07566102 -0.024138605
000040 3d 92 03 3e a8 49 b2 3c bd 56 a3 bd 5a 52 24 3d
       0.12848754 0.021763638 -0.079755284 0.0401176
000050 2f 61 9d bd e7 fa bb bc 70 6e 90 bd 40 ee d9 3d
       -0.07684552 -0.022946788 -0.07052314 0.10641146
000060 fd e8 06 be 51 98 99 bd 03 22 4e bd 62 a2 ea bd
       -0.13174815 -0.07499755 -0.050325405 -0.11456753
000070 78 2a ac 3a 1d f4 36 be 4a 40 0b 3e f1 bd 1f be
       0.0013135215 -0.1786656 0.13598743 -0.155998
000080 3f c6 e9 3d c3 ff 56 3c 54 a7 8c bd a5 0d b5 3d
       0.114147656 0.013122502 -0.06867853 0.08840493
000090 54 d1 b0 3c a3 52 f7 3d c4 09 37 3c 70 e5 4c bd
       0.02158419 0.120763086 0.011171762 -0.050023496
0000a0 6d f2 3c 3d ef 7a 31 bd e1 96 99 3d 29 52 1d 3e
       0.046129633 -0.04333013 0.07499481 0.15363373
0000b0 f7 37 d1 3d 21 a1 90 bd 6d 9e c4 3d cd 2a 01 3d
       0.102157526 -0.07061983 0.0960053 0.03153496
0000c0 13 73 b6 3d 5e 8c c7 bd 07 ea 24 be e0 60 70 bd
       0.089086674 -0.0974357 -0.161049 -0.058686137
0000d0 17 bc f9 bd 60 c0 12 3e 6d 76 4d 3d e9 81 92 3d
       -0.121940784 0.14331198 0.050161768 0.07153685
0000e0 be ee 61 3d 2c ed bf 3a 2c 29 0a 3e 29 1e ea bd
       0.055159323 0.0014642826 0.13492268 -0.11431534
0000f0 06 2a 81 3c e1 40 dd bd f8 e1 6b 3d a2 e5 30 bd
       0.015767109 -0.1080339 0.057588547 -0.043187745
000100 c6 d2 85 3d 70 49 a8 bc 3d 22 1c 3e e1 fe ac bd
       0.065343425 -0.02054283 0.15247436 -0.08447052
000110 3d 44 ae bd 0d 54 ae bd a8 fc 27 3e 22 9a 8e 3d
       -0.08509109 -0.08512125 0.16404974 0.06962992
000120 14 e3 1b 3e c8 26 19 be 25 7e 31 be f8 16 0e be
       0.15223342 -0.149562 -0.17333277 -0.1387595
000130 9c 10 fa bd c5 ae 75 3d fd 3e 72 3d 93 24 19 3e
       -0.12210199 0.059981126 0.0591421 0.14955358
000140 79 38 92 bd 7a 3c ee bd c5 93 ba 3d 63 c2 86 bd
       -0.071396776 -0.11632629 0.09110216 -0.06580045
000150 28 df c5 3d 0b 52 32 bd e0 d4 bd 3d cd 13 00 be
       0.09661704 -0.043535274 0.09269118 -0.12507553
000160 af e5 8d bd 7d 63 86 3d b3 bb 0a 3d 66 33 1d bd
       -0.06928574 0.06561945 0.03387041 -0.038379095
000170 17 33 cc 3d 7f fd e1 3d 9f ba fa bd 06 86 ba bd
       0.09970682 0.11034679 -0.122426264 -0.09107594
000180 8f 6a 1f 3e 2d c5 29 bd 22 28 4a bd da 3f 16 be
       0.15567993 -0.041447807 -0.04935468 -0.14672795
000190 4e d7 a5 bd 10 23 65 3d 9f 21 04 bc b0 4d da bd
       -0.08097707 0.05594164 -0.0080646565 -0.10659349
0001a0 fc 35 94 3c e7 ec cb bd aa 36 02 be 6f 31 9e bd
       0.018092148 -0.09957295 -0.12716165 -0.077242725
0001b0 e0 33 0d be 08 03 d3 bd 01 6f 28 3e e0 e0 04 3d
       -0.1378932 -0.103033125 0.16448595 0.03244102
0001c0 7c e6 44 3d 28 29 23 be f1 25 d2 bd 15 bc 78 bd
       0.04807137 -0.15933669 -0.10261143 -0.060726244
0001d0 98 7b b1 3c 59 62 15 be 0d 99 a3 bd 36 64 d8 bd
       0.02166538 -0.14588298 -0.079881765 -0.10565989
0001e0 c6 c9 93 bb 9e 5e 8b bd 68 a5 8e bc e8 80 f9 bd
       -0.0045101373 -0.06805156 -0.017412856 -0.1218279
0001f0 2a 5f fc bd 20 86 d5 bd a6 89 87 bd cd 40 0f be
       -0.123228386 -0.10425973 -0.06618051 -0.13989563
000200 89 eb 07 3e 33 0a 22 bd 2c e1 0b 3e c4 3c 39 3d
       0.13273443 -0.039560508 0.13660115 0.045223966
000210 21 62 1a be 16 59 da 3d 9c 06 5b bd 0d cd 49 bd
       -0.15076496 0.10661523 -0.0534731 -0.049267817
000220 ad 60 fd bd 31 bd 1a be 13 fe 7e 3d b3 df b2 bc
       -0.12371955 -0.15111233 0.062254023 -0.021835184
000230 3c 67 a2 3d d2 63 fa bd 76 8d 0d 3e 83 e7 dc bd
       0.07929847 -0.122260705 0.13823494 -0.10786345
000240 c2 b1 a5 bc ad 46 36 3d 44 fc b7 3d f2 2b 0c 3e
       -0.020226363 0.044500995 0.08983663 0.13688639
000250 72 26 22 3e 8d fc 07 be 50 36 62 3d e9 d3 6d bd
       0.15834978 -0.13279934 0.055227578 -0.05806342
000260 75 9e f6 bb 88 9a fb bd 3e e5 1c 3e ad d2 fb bd
       -0.007526214 -0.12285334 0.15321824 -0.122960426
000270 77 84 ac 3d 34 f9 55 3d 7d 9e 4c 3d ee 77 a9 bd
       0.08423703 0.05223961 0.049955834 -0.08274828
000280 b4 37 25 3e 2f 85 1e 3d f3 86 ba 3c cd 31 16 be
       0.1613453 0.038701233 0.022769427 -0.14667435
000290 b0 2b 8c 3d 71 07 e9 bc 5a e4 a5 bd 48 63 0e 3e
       0.0684427 -0.028445931 -0.08100195 0.1390506
0002a0 40 c0 31 3d a4 15 af bd c0 96 ab bd 1f 96 b5 bc
       0.043396235 -0.085490495 -0.08378363 -0.02216631
0002b0 02 d7 a1 3d f0 ce 68 bd 29 49 df bd c0 eb 91 bd
       0.079023376 -0.056837976 -0.10902626 -0.07125044
0002c0 d6 1a 0e be 01 68 3b 3d 8e fd eb 3d 4b 34 2f be
       -0.13877425 0.045753483 0.11522971 -0.17109792
0002d0 b8 5e c4 3c 60 fc 91 3d 97 33 b7 3c 54 8e 96 bd
       0.023970947 0.07128215 0.022363467 -0.07351366
0002e0 1e 3b 97 3d 7f c8 a7 3d 74 80 4d 3d 6d a4 26 bd
       0.073843226 0.081925385 0.05017133 -0.040684152
0002f0 d0 b3 6d bd 6d 97 aa 3b 4c 23 2c bd 64 9c 55 bd
       -0.05803281 0.0052060396 -0.04202585 -0.0521511
000300 33 44 cc 3d f9 1f 0e 3e 0a 12 7b bc 97 be 47 bd
       0.099739455 0.13879384 -0.015324125 -0.048765745
000310 26 3c fb bb 40 1b bb bc 51 67 eb 3c 22 1d 1e 3d
       -0.0076670824 -0.022840142 0.028735789 0.038602002
000320 39 53 1c be dd 07 8a bd 11 85 0d 3e 90 55 88 3d
       -0.15266122 -0.06739781 0.13820292 0.06656945
000330 69 71 a5 bc 71 95 e2 bd 8f 71 e3 bd 78 e1 09 be
       -0.02019568 -0.1106366 -0.11105644 -0.13464916
000340 c9 fa 21 bd 01 a2 91 3d ae ee f7 3d f3 fa bb 3d
       -0.039545808 0.07110978 0.121060714 0.09178724
000350 7f a1 07 be 33 ed ae bd e0 2c 41 bc 5f 06 34 3e
       -0.132452 -0.08541336 -0.011790484 0.17580555
000360 0c a3 d3 3c 78 9f 15 bd 67 a5 94 3d 76 6a 86 bd
       0.025834583 -0.036529034 0.072581105 -0.065632746
000370 bd c9 cc bd 00 e5 fb 3d 3b 0f 79 bd a2 3f a7 bc
       -0.09999416 0.12299538 -0.06080554 -0.020416085
000380 5f 19 1b be ca 30 ea 3d 33 d5 08 3e fc 73 86 3d
       -0.15146397 0.11435087 0.13362579 0.06565091
000390 0f 9d ec bd 30 a3 1f be 47 97 06 be f5 43 0e 3e
       -0.11553394 -0.15589595 -0.13143645 0.13893111
0003a0 0e f6 c0 3d 2f e4 1e 3e 5a 81 b7 3d f9 3e 4d 3d
       0.09421931 0.15516733 0.08960219 0.050108884
0003b0 13 a8 0b 3b 8f 9d 01 be 66 7c 09 be 51 9b 1d be
       0.0021309897 -0.1265776 -0.1342636 -0.1539128
0003c0 6b df 9f 3d fa a6 89 bd 74 de 9c bc fd a4 a6 bd
       0.078062855 -0.067213014 -0.019149043 -0.08136938
0003d0 75 03 82 bc 8f 76 d2 bd ae ce c2 bd b3 97 8c 3d
       -0.015870789 -0.102765195 -0.09512077 0.06864872
0003e0 3b b0 12 bd a1 35 ef 3d ea 24 20 bd fe f7 dc bd
       -0.035812598 0.11680151 -0.039097704 -0.10789488
0003f0 05 81 0d bd 24 77 a6 bd a5 7b 53 bd 5a 94 30 be
       -0.03454687 -0.08128193 -0.05163159 -0.17244092

backbone.1.weight f4 [20]
000000 56 d6 7f 3f 7a 3b 7f 3f aa db 7d 3f cb f2 7d 3f
       0.99936426 0.9970013 0.99163306 0.991986
000010 48 0a 80 3f 47 f2 7f 3f c7 11 7e 3f 31 ce 7f 3f
       1.0003138 0.9997906 0.99245876 0.99924
000020 aa fa 80 3f 53 c7 80 3f 95 90 7e 3f d0 1c 81 3f
       1.0076497 1.0060829 0.99439365 1.0086918
000030 1c 4b 80 3f 0b ad 7e 3f 93 f6 7e 3f a8 bd 7e 3f
       1.0022922 0.9948279 0.9959499 0.9950814
000040 cd b3 80 3f 59 e5 80 3f 5c b8 7e 3f c4 46 7f 3f
       1.0054871 1.0069991 0.9950006 0.99717355

backbone.1.bias f4 [20]
000000 63 a4 a7 3a 0c ac 94 bb 77 7b e6 bb 8c c2 ed bb
       0.001279008 -0.004537111 -0.007033761 -0.007255858
000010 c7 88 19 3b d3 66 18 bb bd b4 e8 bb 80 96 1e b9
       0.0023427473 -0.0023254647 -0.007101624 -0.0001512412
000020 8f e0 d9 3b c1 10 ae 3b c6 18 b0 bb d1 16 04 3c
       0.006649084 0.005312056 -0.005374047 0.0080620805
000030 e3 db 26 3b ec 8c d6 bb ab e5 a5 bb 51 9d c6 bb
       0.0025460653 -0.006547561 -0.005062779 -0.006061234
000040 36 f5 95 3b 88 2c ca 3b 19 11 c1 bb 89 d5 a6 bb
       0.0045763506 0.0061698593 -0.005891931 -0.0050913733

backbone.1.running_mean f4 [20]
000000 18 e0 45 be de f9 d6 bd 4d 6e 91 3d c1 c0 65 3e
       -0.19323766 -0.10496877 0.07101116 0.22436811
000010 32 0c c6 bd 89 01 6f bd 5d 71 7d 3d dd 2c 81 3b
       -0.09670295 -0.058351073 0.06187569 0.0039421157
000020 f9 6a 31 3e 72 0b 95 3e f3 47 63 3d 5a 03 0a 3e
       0.17325963 0.29110295 0.055488538 0.13477841
000030 57 c3 da 3b 7f 5c 12 be c8 c8 40 3c fd f4 0b be
       0.0066761184 -0.14293097 0.01176662 -0.13667674
000040 84 3a 0b 3d 76 76 e3 3d 83 f3 75 bd f7 2c 0d bd
       0.03399135 0.11106579 -0.060046684 -0.03446671

backbone.1.running_var f4 [20]
000000 35 a2 ea 3e 2f 04 ab 3e 0d e3 91 3e 96 65 4e 3f
       0.4582688 0.3340163 0.28493538 0.8062376
000010 3c f0 92 3e cb 6f 83 3e 37 fe 9d 3e df 46 77 3e
       0.2869891 0.2567123 0.30858013 0.24148129
000020 2c 58 dd 3e 1a 9c 96 3f f9 f2 79 3e 55 2f 0f 3f
       0.43231332 1.1766388 0.24409093 0.559316
000030 df 9b 81 3e 85 e9 01 3f cf 7b 78 3e 8f 9b c0 3e
       0.25314233 0.5074695 0.24265979 0.37618682
000040 87 cb 94 3e 9c 99 0c 3f 41 9d 95 3e b2 60 7f 3e
       0.2906153 0.5492189 0.29221538 0.2493923

head.2.weight f4 [1, 20]
000000 82 0f 69 bd e1 2c fc 3d 3e 63 95 3d 1d 2e 2d 3e
       -0.056899555 0.123132475 0.072943196 0.16912122
000010 d0 3b ac bd 6f cc 99 3d e9 7b 93 3d 07 e0 3d be
       -0.08409846 0.07509696 0.07201368 -0.18542491
000020 c6 f0 65 be ba 1d fa bd 5d 06 17 3e 73 78 60 be
       -0.22455129 -0.12212701 0.14748521 -0.21920948
000030 1b ab 49 be 2a 0a f6 3d b8 e0 ee 3d 37 4a 37 3e
       -0.19694178 0.120136574 0.116639555 0.17899404
000040 80 7e 32 be d2 c5 2e be 6e d0 e0 3d 72 41 44 3e
       -0.17431068 -0.1706765 0.10977255 0.1916559
